start training!!!
MLP_dtp(
  (fnetwork): Sequential(
    (flayer1): Sequential(
      (0): Linear(in_features=784, out_features=240, bias=True)
      (1): Tanh()
    )
    (flayer2): Sequential(
      (0): Linear(in_features=240, out_features=240, bias=True)
      (1): Tanh()
    )
    (flayer3): Sequential(
      (0): Linear(in_features=240, out_features=240, bias=True)
      (1): Tanh()
    )
    (flayer4): Sequential(
      (0): Linear(in_features=240, out_features=240, bias=True)
      (1): Tanh()
    )
    (flayer5): Sequential(
      (0): Linear(in_features=240, out_features=240, bias=True)
      (1): Tanh()
    )
    (flayer6): Sequential(
      (0): Linear(in_features=240, out_features=10, bias=True)
      (1): Tanh()
    )
  )
  (bnetwork): Sequential(
    (blayer1): Sequential(
      (0): Linear(in_features=240, out_features=240, bias=True)
      (1): Tanh()
    )
    (blayer2): Sequential(
      (0): Linear(in_features=240, out_features=240, bias=True)
      (1): Tanh()
    )
    (blayer3): Sequential(
      (0): Linear(in_features=240, out_features=240, bias=True)
      (1): Tanh()
    )
    (blayer4): Sequential(
      (0): Linear(in_features=240, out_features=240, bias=True)
      (1): Tanh()
    )
    (blayer5): Sequential(
      (0): Linear(in_features=10, out_features=240, bias=True)
      (1): Tanh()
    )
  )
)
epoch: 0, step: 49, loss: 3.118075811993549, losses: {'autoencoder_layer1': tensor(0.2548, device='cuda:0', grad_fn=<MeanBackward0>), 'autoencoder_layer2': tensor(0.3138, device='cuda:0', grad_fn=<MeanBackward0>), 'autoencoder_layer3': tensor(0.3372, device='cuda:0', grad_fn=<MeanBackward0>), 'autoencoder_layer4': tensor(0.
…
